models/circle_regression_model_0.pth (torch, 2897 bytes, 3 tensors)

layer_1.weight f4 [10, 2]
00000000: e3c4 b940 df79 b8c0 daba db3e f4d2 2bbe
00000010: c693 45be a990 b8c0 e6b3 b6be 10c1 5c3e
00000020: 5013 193e 209c 38be a202 9d40 1e9f a840
00000030: 6bba a3c0 7457 a6c0 a798 bc40 85ee 603e
00000040: 9c05 5d40 5ee7 50c0 5189 a6c0 806c 9c40
5.805284 -5.764877 0.42915994 -0.16779691 -0.19294652 -5.7676587 -0.35684127 0.21558022
0.14948773 -0.18028307 4.9065714 5.2694235 -5.116506 -5.1981754 5.8936343 0.21965988
3.4534674 -3.2641215 -5.2042623 4.8882446

layer_1.bias f4 [10]
00000000: e3fb c3bf 3f66 03bf d68d b5be 4a4d f7be
00000010: 8293 19bf 74df bcbf 5303 bebf a3f5 91be
00000020: 2ce9 cc40 a794 e7bf
-1.5311245 -0.5132789 -0.35459775 -0.48301154 -0.59990704 -1.4755692 -1.4844764 -0.28507718
6.4034634 -1.809224

layer_2.weight f4 [1, 10]
00000000: 435e a6c0 7702 97be 92ff 94c0 a491 d7bd
00000010: e88a 4a3d 32f5 9dc0 a6ea 97c0 bb4f 95c0
00000020: 0a58 9240 da40 93c0
-5.1990066 -0.29494068 -4.6561975 -0.105258256 0.049448878 -4.936181 -4.7473936 -4.6659827
4.573247 -4.6016665
